…
[2022-02-19 23:37:09,607: INFO: 02_transfer_learning_even_odd]: 
********************
[2022-02-19 23:37:09,607: INFO: 02_transfer_learning_even_odd]: >>>>> stage transfer learning started <<<<<
[2022-02-19 23:37:09,609: INFO: common]: yaml file: configs/config.yaml loaded successfully
[2022-02-19 23:37:10,551: INFO: 02_transfer_learning_even_odd]: loaded base model summary: 
Model: "sequential"
_________________________________________________________________
 Layer (type)                Output Shape              Param #   
=================================================================
 InputLayer (Flatten)        (None, 784)               0         
                                                                 
 HiddenLayer1 (Dense)        (None, 300)               235500    
                                                                 
 leaky_re_lu (LeakyReLU)     (None, 300)               0         
                                                                 
 HiddenLayer2 (Dense)        (None, 100)               30100     
                                                                 
 leaky_re_lu_1 (LeakyReLU)   (None, 100)               0         
                                                                 
 OutputLayer (Dense)         (None, 10)                1010      
                                                                 
=================================================================
Total params: 266,610
Trainable params: 266,610
Non-trainable params: 0
_________________________________________________________________

[2022-02-19 23:37:10,652: INFO: 02_transfer_learning_even_odd]: transfer learning model summary: 
Model: "sequential"
_________________________________________________________________
 Layer (type)                Output Shape              Param #   
=================================================================
 InputLayer (Flatten)        (None, 784)               0         
                                                                 
 HiddenLayer1 (Dense)        (None, 300)               235500    
                                                                 
 leaky_re_lu (LeakyReLU)     (None, 300)               0         
                                                                 
 HiddenLayer2 (Dense)        (None, 100)               30100     
                                                                 
 leaky_re_lu_1 (LeakyReLU)   (None, 100)               0         
                                                                 
 OutputLayer (Dense)         (None, 2)                 202       
                                                                 
=================================================================
Total params: 265,802
Trainable params: 202
Non-trainable params: 265,600
_________________________________________________________________

[2022-02-19 23:37:44,066: INFO: 02_transfer_learning_even_odd]: base model is saved at artifacts\models\even_odd_model.h5
…
[2022-02-19 23:56:57,998: INFO: 03_transfer_learning2]: 
********************
[2022-02-19 23:56:57,998: INFO: 03_transfer_learning2]: >>>>> stage transfer learning 2 started <<<<<
[2022-02-19 23:56:57,998: INFO: common]: yaml file: configs/config.yaml loaded successfully
[2022-02-19 23:56:58,939: INFO: 03_transfer_learning2]: loaded base model summary: 
Model: "sequential"
_________________________________________________________________
 Layer (type)                Output Shape              Param #   
=================================================================
 InputLayer (Flatten)        (None, 784)               0         
                                                                 
 HiddenLayer1 (Dense)        (None, 300)               235500    
                                                                 
 leaky_re_lu (LeakyReLU)     (None, 300)               0         
                                                                 
 HiddenLayer2 (Dense)        (None, 100)               30100     
                                                                 
 leaky_re_lu_1 (LeakyReLU)   (None, 100)               0         
                                                                 
 OutputLayer (Dense)         (None, 10)                1010      
                                                                 
=================================================================
Total params: 266,610
Trainable params: 266,610
Non-trainable params: 0
_________________________________________________________________

[2022-02-19 23:56:59,005: INFO: 03_transfer_learning2]: transfer learning 2 model summary: 
Model: "sequential"
_________________________________________________________________
 Layer (type)                Output Shape              Param #   
=================================================================
 InputLayer (Flatten)        (None, 784)               0         
                                                                 
 HiddenLayer1 (Dense)        (None, 300)               235500    
                                                                 
 leaky_re_lu (LeakyReLU)     (None, 300)               0         
                                                                 
 HiddenLayer2 (Dense)        (None, 100)               30100     
                                                                 
 leaky_re_lu_1 (LeakyReLU)   (None, 100)               0         
                                                                 
 OutputLayer (Dense)         (None, 2)                 202       
                                                                 
=================================================================
Total params: 265,802
Trainable params: 202
Non-trainable params: 265,600
_________________________________________________________________

[2022-02-19 23:57:26,570: INFO: 03_transfer_learning2]: 
********************
[2022-02-19 23:57:26,570: INFO: 03_transfer_learning2]: >>>>> stage transfer learning 2 started <<<<<
[2022-02-19 23:57:26,570: INFO: common]: yaml file: configs/config.yaml loaded successfully
[2022-02-19 23:57:27,583: INFO: 03_transfer_learning2]: loaded base model summary: 
Model: "sequential"
_________________________________________________________________
 Layer (type)                Output Shape              Param #   
=================================================================
 InputLayer (Flatten)        (None, 784)               0         
                                                                 
 HiddenLayer1 (Dense)        (None, 300)               235500    
                                                                 
 leaky_re_lu (LeakyReLU)     (None, 300)               0         
                                                                 
 HiddenLayer2 (Dense)        (None, 100)               30100     
                                                                 
 leaky_re_lu_1 (LeakyReLU)   (None, 100)               0         
                                                                 
 OutputLayer (Dense)         (None, 10)                1010      
                                                                 
=================================================================
Total params: 266,610
Trainable params: 266,610
Non-trainable params: 0
_________________________________________________________________

[2022-02-19 23:57:27,654: INFO: 03_transfer_learning2]: transfer learning 2 model summary: 
Model: "sequential"
_________________________________________________________________
 Layer (type)                Output Shape              Param #   
=================================================================
 InputLayer (Flatten)        (None, 784)               0         
                                                                 
 HiddenLayer1 (Dense)        (None, 300)               235500    
                                                                 
 leaky_re_lu (LeakyReLU)     (None, 300)               0         
                                                                 
 HiddenLayer2 (Dense)        (None, 100)               30100     
                                                                 
 leaky_re_lu_1 (LeakyReLU)   (None, 100)               0         
                                                                 
 OutputLayer (Dense)         (None, 2)                 202       
                                                                 
=================================================================
Total params: 265,802
Trainable params: 202
Non-trainable params: 265,600
_________________________________________________________________

[2022-02-19 23:57:57,398: INFO: 03_transfer_learning2]: base model is saved at artifacts\models\greater_than_5_model.h5
…
